…
 input_1 (InputLayer)           [(None, 150, 150, 3  0           []
                                )]

 conv2d (Conv2D)                (None, 147, 147, 32  1568        ['input_1[0][0]']
                                )

 dropout (Dropout)              multiple             0           ['conv2d[0][0]',
                                                                  'conv2d_1[0][0]']

 max_pooling2d (MaxPooling2D)   multiple             0           ['dropout[0][0]',
                                                                  'dropout[1][0]']

 conv2d_1 (Conv2D)              (None, 70, 70, 32)   16416       ['max_pooling2d[0][0]']

 flatten (Flatten)              (None, 39200)        0           ['max_pooling2d[1][0]']

 dense_1 (Dense)                (None, 100)          3920100     ['flatten[0][0]']

 dropout_1 (Dropout)            (None, 100)          0           ['dense_1[0][0]',
                                                                  'dense_2[0][0]']

 dense_2 (Dense)                (None, 100)          10100       ['dropout_1[0][0]']

 dense (Dense)                  (None, 6)            606         ['dropout_1[1][0]']

==================================================================================================
Total params: 3,948,790
Trainable params: 3,948,790
Non-trainable params: 0
__________________________________________________________________________________________________
None
Epoch 1/200
2022-12-17 21:12:08.506138: I tensorflow/stream_executor/cuda/cuda_dnn.cc:384] Loaded cuDNN version 8700
…
